models/cannabis_app_classifier.joblib/pytorch_model.pt (torch, 150771 bytes, 19 tensors)

net.0.weight f4 [128, 8]
-0.051706314 0.06466921 -0.093344115 0.21823935 -0.27342707 0.22631475 0.27197346 0.121500224
0.15708251 0.21043152 0.16892415 0.2544334 -0.25421596 -0.1958002 0.21696573 -0.24264231
0.1955938 0.16952324 -0.24194953 -0.07691386 0.2824879 0.047115475 0.06444608 0.26073772
0.029737264 0.19360474 0.272737 -0.051924955 -0.063953206 0.11730775 0.26632467 0.13449883
-0.19631445 -0.14177209 -0.06343803 -0.032683145 -0.14202075 -0.005218601 -0.23297824 0.15962179
0.112841815 -0.028305635 -0.017022409 0.07227331 0.25786838 -0.16034828 0.2838117 0.2325929
0.18416536 0.14819627 0.13340794 -0.23054896 -0.22985895 -0.13844328 -0.13969052 0.18941745
-0.0040481063 -0.10234576 -0.23044062 -0.17838536 -0.15757364 -0.079382 -0.047136612 0.26326552
0.08382374 -0.11191712 0.052105974 -0.052939385 0.16879782 0.15865518 -0.259259 0.21101224
0.06500841 0.08237943 0.20416261 0.082276344 -0.019382713 0.2012257 -0.06330905 -0.20989126
-0.017049676 0.15546963 -0.17668703 0.21693034 0.11509085 0.21484245 -0.16537584 -0.10963819
0.29704323 -0.32460523 0.14360224 -0.18132621 0.17842513 -0.11442704 -0.18979003 -0.09620539
-0.16351953 0.23011109 0.18151364 0.031732086 -0.22008424 0.23311426 0.030716393 -0.056118306
0.068558276 -0.29720205 0.08724987 0.08344676 -0.22431578 0.12924634 -0.042395946 -0.27583456
-0.27013958 0.29396138 0.12565881 0.14101261 -0.16262051 0.20232503 -0.109720565 -0.13849953
-0.31678793 0.18253767 -0.0060254936 -0.23519236 -0.1227496 -0.22580603 -0.12293941 0.13095422
-0.14171244 0.016291223 0.1303807 -0.29968926 0.15941636 -0.20468353 0.13124032 -0.20572789
-0.23967016 -0.21975088 -0.11235508 -0.0684094 -0.050185587 -0.0049652555 -0.07902481 0.034236267
-0.15252987 0.12926635 -0.14640261 -0.2556498 0.0380202 -0.039463583 -0.088559575 -0.028711522
-0.2001085 -0.10191127 -0.09850126 -0.12916209 -0.20031692 0.107650995 0.26908246 0.0006926615
0.030649684 -0.008391275 0.026209928 0.15556203 0.15158197 -0.25812757 0.13018724 -0.20564681
0.2764946 0.08502845 -0.04507185 -0.0753462 0.020025995 -0.20581646 -0.058458835 0.08541981
0.07415076 -0.09629648 0.199379 -0.2993897 0.12138722 -0.20554294 -0.070641235 -0.2076229
-0.06862401 0.14279544 0.13784724 0.07386659 0.04961662 -0.058632214 0.08719415 -0.14589462
-0.16845965 -0.16803686 -0.21628673 0.15298165 -0.094743885 0.051615465 0.08856198 0.26944527
-0.22591299 0.18906938 -0.28857744 0.16028892 -0.16291498 0.1691955 -0.011966212 0.13874923
0.18129383 0.036088116 0.20749706 -0.0825533 -0.26625258 -0.05783869 0.27397135 -0.27574044
-0.2789901 0.026072169 -0.19338933 0.16883937 0.17071651 0.08438973 0.21709713 -0.12472795
0.20371711 -0.09071088 -0.09029522 -0.075895794 0.25324583 -0.03278872 -0.2891885 0.04732908
0.24998502 -0.048253283 -0.3022233 0.10528292 -0.24376549 0.19681555 -0.014974469 -0.27640146
-0.23569813 -0.18015388 -0.076520145 -0.103125446 0.06318274 0.19617999 0.09737756 -0.037150756
-0.24361649 -0.26362053 -0.08080451 0.09677965 0.17718618 -0.0724108 0.23301385 0.0059519457
00000000: 00ca 53bd 4a71 843d 332b bfbd 237a 5f3e
00000010: a2fe 8bbe 0ebf 673e 1b40 8b3e 1cd5 f83d
00000020: 3dda 203e 5c7b 573e 74fa 2c3e 1845 823e
00000030: 9828 82be d97f 48be 442c 5e3e 3a77 78be
00000040: be49 483e 8097 2d3e 9ec1 77be 0485 9dbd
00000050: 41a2 903e 28fc 403d 4efc 833d 6a7f 853e
00000060: 909b f33c 5240 463e 2fa4 8b3e 43af 54bd
00000070: e6f9 82bd 0c3f f03d b55b 883e 10ba 093e
00000080: a806 49be b42c 11be cceb 81bd c3de 05bd
00000090: e36d 11be cc00 abbb d991 6ebe e573 233e
000000a0: 9c19 e73d 38e1 e7bc 9472 8bbc 0704 943d
000000b0: 5307 843e 5732 24be c44f 913e d52c 6e3e
000000c0: d895 3c3e c3c0 173e 179c 083e 0715 6cbe
000000d0: 2560 6bbe 13c4 0dbe 080b 0fbe a6f6 413e
000000e0: faa5 84bb a79a d1bd a0f8 6bbe a7aa 36be
000000f0: fc5a 21be 0893 a2bd 5212 41bd bdca 863e
00000100: c8ab ab3d ce34 e5bd 136d 553d f8d6 58bd
00000110: 56d9 2c3e 8176 223e 98bd 84be 9813 583e
00000120: 2123 853d 8cb6 a83d 0110 513e 8080 a83d
00000130: 7fc8 9ebc 1c0e 4e3e 2da8 81bd bced 56be
00000140: c3ab 8bbc 6e33 1f3e 72ed 34be fd22 5e3e
00000150: c0b4 eb3d a9ff 5b3e 4958 29be fd89 e0bd
00000160: 0d16 983e a832 a6be 770c 133e 94ad 39be
00000170: 14b5 363e b958 eabd 5158 42be 5507 c5bd
00000180: aa71 27be 3ea2 6b3e b6de 393e 81f9 013d
00000190: c35d 61be 81b5 6e3e f2a0 fb3c 4fdc 65bd
000001a0: 4868 8c3d de2a 98be 0fb0 b23d 23e6 aa3d
000001b0: 09b3 65be 2759 043e 5fa7 2dbd 303a 8dbe
000001c0: bc4f 8abe 1b82 963e b4ac 003e 9c65 103e
000001d0: fe85 26be 4b2e 4f3e 2db5 e0bd d2d2 0dbe
000001e0: 0732 a2be 28eb 3a3e 8171 c5bb 44d6 70be
000001f0: 2464 fbbd b239 67be a8c7 fbbd dd18 063e
00000200: 111d 11be 2c75 853c 8582 053e df70 99be
00000210: 0b3e 233e 8f98 51be dd63 063e 55aa 52be
00000220: 186c 75be 6006 61be 6c1a e6bd 3a1a 8cbd
00000230: 678f 4dbd 95b3 a2bb c2d7 a1bd 543b 0c3d
00000240: ca30 1cbe 665e 043e 91ea 15be 88e4 82be
00000250: 12bb 1b3d 91a4 21bd b95e b5bd 6d34 ebbc
00000260: 3ee9 4cbe dbb6 d0bd 07bb c9bd 1143 04be
00000270: e11f 4dbe 2078 dc3d 2dc5 893e ba93 353a
00000280: 0c15 fb3c 8f7b 09bc 34b6 d63c a74b 1f3e
00000290: 4e38 1b3e 4c29 84be ce4f 053e 1495 52be
000002a0: b390 8d3e 6523 ae3d 439d 38bd 1c4f 9abd
000002b0: 8e0d a43c 8dc1 52be 8872 6fbd 95f0 ae3d
000002c0: 5bdc 973d 1737 c5bd 022a 4c3e 9b49 99be
000002d0: dd99 f83d d979 52be 5aac 90bd 199b 54be
000002e0: bf8a 8cbd f838 123e d427 0d3e 5e47 973d
000002f0: cc3a 4b3d 5528 70bd d992 b23d 6665 15be
00000300: b080 2cbe db11 2cbe 457a 5dbe 39a7 1c3e
00000310: 1509 c2bd bd6a 533d fc5f b53d bbf4 893e
00000320: bc55 67be 679b 413e 6cc0 93be c722 243e
00000330: 2fd3 26be 9641 2d3e ee0d 44bc 4714 0e3e
00000340: 17a5 393e 22d1 133d 1c7a 543e b411 a9bd
00000350: 4252 88be 43e8 6cbd f945 8c3e da2d 8dbe
00000360: cad7 8ebe 4d95 d53c da07 46be 3ae4 2c3e
00000370: 4fd0 2e3e 86d4 ac3d b64e 5e3e 5e71 ffbd
00000380: 389b 503e a0c6 b9bd b3ec b8bd 416f 9bbd
00000390: 70a9 813e 774d 06bd 8410 94be 23dc 413d
000003a0: 13fc 7f3e 3ca5 45bd 03bd 9abe 929e d73d
000003b0: a99d 79be 048a 493e 7a57 75bc 7e84 8dbe
000003c0: da5a 71be 427a 38be 98b6 9cbd 6f33 d3bd
000003d0: f465 813d 68e3 483e e36d c73d 642b 18bd
000003e0: 9a76 79be 45f9 86be d67c a5bd 6934 c63d
000003f0: 4b70 353e 1d4c 94bd 2f9b 6e3e 8a08 c33b

net.0.bias f4 [128]
7.7633624e-05 -0.07285876 0.011374372 0.25469473 -0.12837659 0.24067375 -0.00012111803 0.012437034
0.114798695 0.08908833 -0.06740864 -0.00046898614 0.07948879 0.08449631 -0.07160044 0.0066970377
-0.25234234 0.058560107 0.08878288 -0.0048579066 -0.08011188 -0.049081154 -0.23308857 -0.23572418
0.023715097 0.168882 0.25504574 -0.00010801345 0.2144527 0.0038796794 0.21423124 0.00035479304
-0.09416213 0.14089549 -0.01005 0.09950781 -0.21643615 0.07385783 0.034338415 -0.0069968896
-0.059818488 0.12539099 0.08330905 0.15715124 0.16401923 0.16589713 -0.13432984 -1.6068016e-05
0.14837153 -0.1063212 0.0014196557 0.02283296 0.02261322 0.1844796 1.788164e-05 0.2117711
0.11970085 -0.23262925 0.12124855 -0.00019027408 0.14318049 3.9608803e-06 -0.00047633363 -0.0152421845
-0.06305008 0.0113484245 -0.0002592664 -0.0003571406 -0.21553564 0.06434931 -0.051696308 0.030151907
5.091108e-05 0.030391563 -0.14966562 -0.023145866 -0.13688894 0.14072205 -0.22784624 0.078376666
-0.16259429 -0.2291423 -0.10714906 -0.1140245 -0.007908733 0.24954721 -0.020583868 1.1152443e-05
-0.019106012 -0.00020002831 0.06499015 0.24734828 -0.011714803 -0.073230304 0.058224194 0.00019604556
0.00032432788 0.00010179969 -0.11842864 0.23211727 0.19742805 0.056118876 0.00015076062 0.1053734
0.19960639 -0.17746611 -0.13344368 0.19721508 -0.18684061 -0.25449267 -0.24712175 0.008922701
0.10195211 0.1653331 0.00046682177 0.0006582109 -0.016642345 -0.22869594 0.10189187 -0.148604
-0.22477138 0.2508353 0.19737415 0.00045194276 0.08670073 -0.0011596119 0.0030934429 0.14830644
00000000: 3ccf a238 f936 95bd 935b 3a3c 5967 823e
00000010: 2775 03be 2e73 763e bf00 feb8 b4c4 4b3c
00000020: 941b eb3d f173 b63d 8b0d 8abd 41e2 f5b9
00000030: 05cb a23d 670c ad3d 40a3 92bd d372 db3b
00000040: 0433 81be b9dc 6f3d ccd3 b53d 132f 9fbb
00000050: b311 a4bd 5209 49bd c5ae 6ebe ae61 71be
00000060: 2a46 c23c 67ef 2c3e 5b95 823e 4885 e2b8
00000070: 7d99 5b3e 3842 7e3b 6f5f 5b3e 8403 ba39
00000080: 13d8 c0bd e846 103e c1a8 24bc c0ca cb3d
00000090: 70a1 5dbe c642 973d 70a6 0c3d 2a46 e5bb
000000a0: 3b04 75bd 7f66 003e ef9d aa3d 41ec 203e
000000b0: a8f4 273e f0e0 293e c38d 09be cdc9 86b7
000000c0: b5ee 173e eebe d9bd be13 ba3a 300c bb3c
000000d0: 5c3f b93c 38e8 3c3e 8800 9637 86da 583e
000000e0: b825 f53d 5d36 6ebe 2951 f83d 4f84 47b9
000000f0: e89d 123e b4e7 8436 6bbc f9b9 5bba 79bc
00000100: 6620 81bd beee 393c 26ee 87b9 9a3e bbb9
00000110: 60b5 5cbe 92c9 833d 82bf 53bd 2201 f73c
00000120: 5b89 5538 baf7 f83c f241 19be 669c bdbc
00000130: 9d2c 0cbe 7119 103e 8650 69be f283 a03d
00000140: 1e7f 26be 47a4 6abe f770 dbbd ad85 e9bd
00000150: a193 01bc 4e89 7f3e 809f a8bc 611b 3b37
00000160: 3684 9cbc b1be 51b9 8e19 853d de48 7d3e
00000170: 72ef 3fbc c5f9 95bd 7e7c 6e3d 9491 4d39
00000180: 8d0a aa39 4b7d d538 b78a f2bd 26b0 6d3e
00000190: 942a 4a3e e8dc 653d 7f15 1e39 02ce d73d
000001a0: 9e65 4c3e adb9 35be 76a5 08be c0f2 493e
000001b0: 2553 3fbe dd4c 82be 7c0d 7dbe 8530 123c
000001c0: 45cc d03d 154d 293e c2bf f439 c98b 2c3a
000001d0: 8755 88bc 452f 6abe afac d03d a62b 18be
000001e0: 782a 66be 7c6d 803e 731c 4a3e bbf2 ec39
000001f0: 2790 b13d 1efe 97ba 5cbb 4a3b a5dd 173e

net.1.weight f4 [128]
0.9048671 0.9021734 0.91004145 0.9058401 0.9047169 0.9048052 0.90222573 0.9084934
0.9006656 0.9070638 0.9134597 0.91159123 0.9037727 0.90850997 0.90282804 0.90395445
0.90063405 0.90634656 0.90442723 0.9097116 0.90465903 0.90657365 0.9047957 0.90092653
0.92380685 0.90756786 0.90840274 0.9063845 0.9063838 0.9090184 0.9063379 0.913821
0.90329236 0.90267795 0.9066225 0.90240294 0.9058011 0.9019101 0.90717626 0.9055507
0.90445536 0.90588003 0.90709114 0.9024456 0.9051457 0.907994 0.90598285 0.9052011
0.90458435 0.9052631 0.905583 0.9038201 0.9051447 0.90265894 0.9029597 0.9039973
0.90550756 0.9040276 0.91413337 0.9022258 0.90440446 0.90335834 0.9047997 0.901831
0.9075557 0.90675277 0.9056084 0.9081057 0.91162294 0.9061781 0.9064062 0.9031779
0.91026634 0.906888 0.9075299 0.90406716 0.9067726 0.9106355 0.9039259 0.90793353
0.9050263 0.90477395 0.90270925 0.903926 0.90698016 0.90841734 0.90773934 0.9057252
0.91498905 0.9092433 0.90385413 0.90163666 0.90753424 0.9016451 0.905573 0.91097814
0.9147994 0.9075531 0.9071835 0.9081777 0.9049914 0.90322196 0.9026046 0.9073831
0.9053441 0.9054251 0.8996871 0.9054176 0.90840673 0.91217697 0.9055345 0.90402156
0.9009357 0.9042695 0.900553 0.9069702 0.91027045 0.90684867 0.9071025 0.9002156
0.9132938 0.9075752 0.90589386 0.9133068 0.905527 0.9051615 0.90710485 0.9039546
00000000: 5fa5 673f d6f4 663f 7af8 683f 23e5 673f
00000010: 879b 673f 50a1 673f 44f8 663f 0693 683f
00000020: 0592 663f 5535 683f 7fd8 693f 0b5e 693f
00000030: a65d 673f 1c94 683f bd1f 673f 8f69 673f
00000040: f48f 663f 5406 683f 8b88 673f dce2 683f
00000050: bc97 673f 3615 683f b1a0 673f 1fa3 663f
00000060: 9b7e 6c3f 5e56 683f 158d 683f d108 683f
00000070: c508 683f 6eb5 683f c305 683f 2cf0 693f
00000080: 2b3e 673f e715 673f 6a18 683f e103 673f
00000090: 95e2 673f 95e3 663f b43c 683f 2cd2 673f
000000a0: 638a 673f c1e7 673f 2037 683f ad06 673f
000000b0: a1b7 673f 4b72 683f 7eee 673f 42bb 673f
000000c0: d792 673f 53bf 673f 4ad4 673f c160 673f
000000d0: 90b7 673f a814 673f 5e28 673f 5e6c 673f
000000e0: 58cf 673f 5a6e 673f a504 6a3f 45f8 663f
000000f0: 0d87 673f 7e42 673f f4a0 673f 65de 663f
00000100: 9255 683f f320 683f f4d5 673f 9d79 683f
00000110: 1f60 693f 4afb 673f 3d0a 683f ab36 673f
00000120: 3707 693f d029 683f e153 683f f270 673f
00000130: 4022 683f 681f 693f b067 673f 556e 683f
00000140: ceaf 673f 449f 673f f417 673f b267 673f
00000150: da2f 683f 0a8e 683f 9b61 683f 9bdd 673f
00000160: b93c 6a3f 2bc4 683f fc62 673f a9d1 663f
00000170: 2a54 683f 37d2 663f a2d3 673f dd35 693f
00000180: 4b30 6a3f 6655 683f 2e3d 683f 557e 683f
00000190: 84ad 673f 8e39 673f 1811 673f 424a 683f
000001a0: a2c4 673f f0c9 673f e551 663f 73c9 673f
000001b0: 588d 683f 6e84 693f 1cd1 673f f56d 673f
000001c0: b9a3 663f 357e 673f a48a 663f 332f 683f
000001d0: 7c07 693f 3c27 683f df37 683f 8874 663f
000001e0: 9fcd 693f d956 683f a9e8 673f 79ce 693f
000001f0: 9ed0 673f aab8 673f 0638 683f 9269 673f

net.1.bias f4 [128]
0.008047522 -0.018670887 -0.016664304 -0.011445464 -0.009984389 0.00921635 -0.004453449 -0.009387971
-0.0034911835 -0.01661502 -0.008285041 -0.0140444385 -0.00045517817 0.011702073 0.0121051995 -0.0049721636
0.018880691 0.0025865934 0.02407491 -0.007390785 0.00013647214 -0.008290234 -0.0024722381 0.0049462724
0.017981287 0.008926625 0.008284549 0.0031679806 0.001289884 -0.020791199 0.0011177629 0.012765013
-0.0075381473 0.0041524367 0.016230198 0.017827459 0.007123883 0.002729088 -0.00034268634 -0.00085167296
-0.011250444 -0.005325589 0.017783877 0.009240725 -0.0030197985 -0.014565235 0.0004890318 -0.006731218
-0.013633357 -0.004733774 -0.016601354 -0.0025038077 -0.020750374 -0.0048833075 0.001972048 -0.014196399
0.006692586 -0.011466676 0.024720594 -0.0005719763 -0.00090968295 -0.00970775 -0.02573056 -6.2597246e-05
0.0062987013 -0.010963205 0.004948216 -0.015518862 -0.0065022516 -0.008384803 -0.0103219375 0.006265683
-0.010911484 -0.019271232 -0.005613112 -0.004938292 -0.0021046724 0.010229948 -0.0060994537 -0.00532028
0.009629552 0.014209709 -0.00010569129 -0.0050103236 -0.0028992584 -0.0010520617 -0.005486847 0.013477257
0.0013249326 0.01134045 0.00755693 0.0138438335 -0.0043915384 0.00052319665 -0.017536838 -0.0027954923
0.0023967759 0.0037370983 0.0044104797 -0.010278717 -0.019592088 -0.017432172 0.019797504 -0.012572862
-0.0075026015 -0.008402198 0.011106429 0.014625017 -0.012194567 -0.001089441 -0.009651728 -0.01590744
0.0045129606 0.0078013088 0.0021329077 -0.0072628157 0.0073820925 0.008899966 0.00446871 -0.011693381
-0.0030204286 -0.008355293 -0.009717675 -0.0004285283 0.005399222 0.0037542286 -0.0023218882 -0.0009939781
00000000: c1d9 033c b0f3 98bc 9483 88bc c185 3bbc
00000010: 9095 23bc 2c00 173c 3dee 91bb 01d0 19bc
00000020: 57cc 64bb 391c 88bc fbbd 07bc a51a 66bc
00000030: fba4 eeb9 0dba 3f3c e354 463c 88ed a2bb
00000040: aeab 9a3c d683 293b bf38 c53c 662e f2bb
00000050: f619 0f39 c3d3 07bc 4605 22bb 5714 a23b
00000060: 7e4d 933c fb40 123c ebbb 073c e59d 4f3b
00000070: 5311 a93a 4e52 aabc e681 923a 5824 513c
00000080: 9002 f7bb 2a11 883b 31f5 843c e40a 923c
00000090: 766f e93b 80da 323b 95aa b3b9 ce42 5fba
000000a0: c853 38bc 4782 aebb 7eaf 913c 6966 173c
000000b0: d0e7 45bb 06a3 6ebc 5e32 003a 8d91 dcbb
000000c0: 725e 5fbc c61d 9bbb 90ff 87bc ec16 24bb
000000d0: b0fc a9bc 2704 a0bb 7a3d 013b 0398 68bc
000000e0: 7b4d db3b bade 3bbc d882 ca3c aef0 15ba
000000f0: ca77 6eba 410d 1fbc e5c8 d2bc a446 83b8
00000100: 5665 ce3b 049f 33bc a524 a23b d342 7ebc
00000110: d710 d5bb 6a60 09bc 581d 29bc 5c50 cd3b
00000120: 15c6 32bc b4de 9dbc 32ee b7bb 65d1 a1bb
00000130: 8bee 09bb 839b 273c eddd c7bb be55 aebb
00000140: 45c5 1d3c d7cf 683c 94a6 ddb8 a42d a4bb
00000150: 7c01 3ebb 55e5 89ba 02cb b3bb b7cf 5c3c
00000160: 5ca9 ad3a 4bcd 393c 20a0 f73b 3fd1 623c
00000170: e5e6 8fbb 2227 093a 6aa9 8fbc 9434 37bb
00000180: 3a13 1d3b 1bea 743b c985 903b 1068 28bc
00000190: 967f a0bc eacd 8ebc 602e a23c 68fe 4dbc
000001a0: 62d8 f5bb 5fa9 09bc bdf7 353c c49d 6f3c
000001b0: b9cb 47bc 93cb 8eba 4822 1ebc 5250 82bc
000001c0: 75e1 933b 1fa2 ff3b 41c8 0b3b eafc edbb
000001d0: 7be5 f13b 2ad1 113c 426e 923b 9895 3fbc
000001e0: 62f2 45bb a4e4 08bc e236 1fbc 18ac e0b9
000001f0: f5eb b03b 8109 763b d22a 18bb 5f48 82ba

net.1.running_mean f4 [128]
0.011738438 -0.10862667 0.012171349 0.23937826 -0.10661404 0.25108692 -0.01411017 0.04830073
0.12119049 0.066732354 -0.07966166 -0.014536482 0.07207324 0.09184565 -0.09053474 0.028077325
-0.26934773 0.09929663 0.10503058 0.016761374 -0.095007986 -0.06719964 -0.2600223 -0.2605483
0.07016224 0.20304234 0.23650298 0.017542241 0.21832879 0.0060890988 0.24449594 0.030531673
-0.12911831 0.14294346 -0.010983108 0.09590538 -0.2565508 0.056864895 0.028162494 -0.013979228
-0.06959924 0.13254148 0.093430676 0.16550998 0.1470302 0.16079968 -0.1409223 -0.009723665
0.1342242 -0.10736017 0.02863558 0.012549741 0.021250369 0.21252522 -0.02088546 0.22764191
0.1208286 -0.27301177 0.136402 -0.038454443 0.1658869 0.002663007 0.0046284418 -0.032558873
-0.08106737 0.013894678 0.013517208 0.030066406 -0.2318592 0.08417115 -0.05799115 0.018025719
-0.0076925126 0.0154724065 -0.16843511 -0.0015088264 -0.13810137 0.13198592 -0.2804869 0.12174897
-0.14571145 -0.25052753 -0.123142056 -0.13497955 0.009148515 0.28560176 -0.021684214 0.021206327
-0.011324763 -0.015846793 0.08232118 0.24508353 -0.035546325 -0.087701395 0.045324903 0.025157914
0.0017423192 0.005647449 -0.12648973 0.25945336 0.18798095 0.048987232 0.011830832 0.09380248
0.20682064 -0.17593187 -0.13189869 0.23060882 -0.21556729 -0.26861617 -0.2746416 -0.008694808
0.12734401 0.17850949 -0.0053294953 -0.0017187311 0.014191568 -0.22787964 0.106784075 -0.16607577
-0.23879056 0.27592146 0.20005023 0.010932801 0.07552149 -0.006140899 0.017597396 0.14236929
00000000: 9452 403c a977 debd 566a 473c 931f 753e
00000010: 7658 dabd 778e 803e 582e 67bc fcd6 453d
00000020: b832 f83d f9aa 883d a725 a3bd 6d2a 6ebc
00000030: 239b 933d 9219 bc3d 476a b9bd 6b02 e63c
00000040: f2e7 89be 085c cb3d 461a d73d 264f 893c
00000050: 8c93 c2bd f79f 89bd a521 85be 9666 85be
00000060: 38b1 8f3d 55ea 4f3e d62d 723e bfb4 8f3c
00000070: 9591 5f3e 1087 c73b 255d 7a3e 8f1d fa3c
00000080: 9737 04be c55f 123e 7ef2 33bc 0a6a c43d
00000090: a05a 83be 2aeb 683d 08b5 e63c 2209 65bc
000000a0: 0c8a 8ebd f4b8 073e 9558 bf3d 737b 293e
000000b0: 168f 163e aca8 243e ef4d 10be 0250 1fbc
000000c0: 1272 093e a6df dbbd 2a95 ea3c 6e9d 4d3c
000000d0: 4115 ae3c 36a0 593e fc17 abbc f61a 693e
000000e0: fc74 f73d 33c8 8bbe f7ac 0b3e 6882 1dbd
000000f0: 41de 293e d885 2e3b 2faa 973b 745c 05bd
00000100: a606 a6bd 81a6 633c 4877 5d3c d34d f63c
00000110: 806c 6dbe ed61 ac3d 2188 6dbd acaa 933c
00000120: 7911 fcbb fa7f 7d3c 417a 2cbe d0c3 c5ba
00000130: 726a 0dbe 5127 073e fb9b 8fbe 8657 f93d
00000140: 6235 15be 2545 80be e731 fcbd 1438 0abe
00000150: a7e3 153c 653a 923e 18a3 b1bc e4b8 ad3c
00000160: 808b 39bc 22d1 81bc 0298 a83d 2df7 7a3e
00000170: 0699 11bd ca9c b3bd 9ba6 393d f817 ce3c
00000180: 885e e43a 3c0e b93b 8686 01be 12d7 843e
00000190: 147e 403e d6a6 483d 1bd6 413c 841b c03d
000001a0: cac8 533e 7c27 34be 7310 07be b824 6c3e
000001b0: acbd 5cbe 0f88 89be d39d 8cbe ab74 0ebc
000001c0: 7866 023e 31cb 363e 0ca3 aebb 0c47 e1ba
000001d0: c083 683c 4859 69be 9cb1 da3d c40f 2abe
000001e0: 8385 74be 9445 8d3e f8d9 4c3e 7e1f 333c
000001f0: 03ab 9a3d 9839 c9bb 6a28 903c 41c9 113e

net.1.running_var f4 [128]
0.21615532 0.38574272 0.20208728 0.36456776 0.29956883 0.34170076 0.38141882 0.29321557
0.14032862 0.19239706 0.1396084 0.12244316 0.16045474 0.1971358 0.14320484 0.31628537
0.25626883 0.3877507 0.18783046 0.37112483 0.18587653 0.15700412 0.19807702 0.07719587
0.26445496 0.17868634 0.26776868 0.29973406 0.12251538 0.2065734 0.34307894 0.38625902
0.22161487 0.3427496 0.25320542 0.30469757 0.23239477 0.43883944 0.08149344 0.058509868
0.20031038 0.100838125 0.2181474 0.21754563 0.23661573 0.58133745 0.14348325 0.25265002
0.2451583 0.12899025 0.24740513 0.23858637 0.10298114 0.18476912 0.16065049 0.26185462
0.077464275 0.17932299 0.3609355 0.48284808 0.33781138 0.16096763 0.20644078 0.47466522
0.19510694 0.12816885 0.19272704 0.4678539 0.20474298 0.38608176 0.14027543 0.13023293
0.18261066 0.38131332 0.13983005 0.16825931 0.053217765 0.2094398 0.6165885 0.48026362
0.18454719 0.14218818 0.20016453 0.40851387 0.107969 0.37934154 0.17096862 0.48439234
0.10606727 0.16758181 0.37577546 0.22972575 0.18525282 0.20234393 0.19494702 0.29411513
0.2875946 0.18574196 0.14740959 0.20165917 0.2186014 0.4704561 0.14162758 0.23690784
0.11538452 0.19460732 0.19572917 0.1584533 0.16607057 0.07458184 0.11991294 0.26754716
0.2625065 0.14475751 0.27149934 0.027170302 0.33608294 0.17861272 0.19119605 0.347516
0.12335546 0.1965442 0.1540316 0.213119 0.2237548 0.16677365 0.29893693 0.118505575
00000000: d257 5d3e 1280 c53e f8ef 4e3e a0a8 ba3e
00000010: 1661 993e 67f3 ae3e 5449 c33e 5a20 963e
00000020: 4eb2 0f3e bc03 453e 81f5 0e3e 7bc3 fa3d
00000030: 3f4e 243e f8dd 493e 4aa4 123e 28f0 a13e
00000040: ab35 833e 4287 c63e a156 403e 1304 be3e
00000050: 6b56 3e3e b0c5 203e b4d4 4a3e de18 9e3d
00000060: a466 873e 8df9 363e fa18 893e be76 993e
00000070: 58e9 fa3d fa87 533e 0ba8 af3e bec3 c53e
00000080: 02ef 623e e07c af3e 24a4 813e 5201 9c3e
00000090: e5f8 6d3e 90af e03e 08e6 a63d 0ba8 6f3d
000000a0: 2a1e 4d3e 3884 ce3d 0862 5f3e 48c4 5e3e
000000b0: 654b 723e 88d2 143f 46ed 123e 585b 813e
000000c0: c70a 7b3e 0516 043e c557 7d3e fc4f 743e
000000d0: c7e7 d23d 1e34 3d3e 9081 243e cf11 863e
000000e0: 97a5 9e3d 72a0 373e 8acc b83e dd37 f73e
000000f0: 9df5 ac3e b3d4 243e 3665 533e 5207 f33e
00000100: 1dca 473e b23e 033e 3d5a 453e 8c8a ef3e
00000110: 25a8 513e 82ac c53e 5da4 0f3e c85b 053e
00000120: 4afe 3a3e 803b c33e 9c2f 0f3e 2b4c 2c3e
00000130: dffa 593d 6377 563e bed8 1d3f 1de5 f53e
00000140: f0f9 3c3e c799 113e eef7 4c3e bb28 d13e
00000150: da1e dd3d 0e39 c23e 6612 2f3e 4602 f83e
00000160: cc39 d93d 919a 2b3e a465 c03e 3a3d 6b3e
00000170: eab2 3d3e 3f33 4f3e 31a0 473e 4296 963e
00000180: 993f 933e 2433 3e3e 8af2 163e be7f 4e3e
00000190: 0cd9 5f3e 9fdf f03e d206 113e f897 723e
000001a0: b84e ec3d 2447 473e 3a6d 483e 9541 223e
000001b0: 670e 2a3e 5dbe 983d ea94 f53d f1fb 883e
000001c0: 4167 863e 503b 143e f601 8b3e 4194 de3c
000001d0: 1013 ac3e 41e6 363e e6c8 433e 9eed b13e
000001e0: caa1 fc3d e242 493e 76ba 1d3e de3b 5a3e
000001f0: fa1f 653e b6c6 2a3e 430e 993e 0db3 f23d

net.4.weight f4 [128, 128]
-0.053275645 -0.011290286 0.056401536 -0.051655084 -0.004686228 -0.0022125142 -0.020699158 -0.022462104
0.06400308 0.06085081 -0.0021209328 0.0031843337 -0.0057135397 -0.055799652 0.013657313 0.03157951
-0.03403575 0.0051232465 -0.06003315 0.068858914 -0.023608714 -0.017688071 0.027376436 0.010238072
-0.04703247 0.020271845 -0.048150085 0.038748376 -0.0019112173 -0.0702601 -0.03272366 0.042196892
-0.012693508 -0.06635968 0.045738246 -0.040274926 0.0019270997 -0.014141765 -0.04412141 -0.019552013
-0.07313837 0.05929777 0.02893371 0.063485205 -0.007959492 -0.063135095 -0.040362444 0.015587697
-0.012470987 -0.010553966 -0.027367415 -0.006211223 -0.044675685 -0.009720561 -0.044348326 0.03137944
-0.034685884 -0.0004520274 0.06284194 -0.020525048 -0.04099119 -0.024770662 0.014498305 -0.050183505
-0.025253203 -0.062171336 -0.03926093 0.027576566 0.041810792 0.010895512 0.0089843515 -0.053586826
0.073690765 0.02284615 -0.022338014 -0.049763396 -0.04667322 0.041313015 0.057500485 -0.04152047
-0.02612617 -0.042693786 0.03064062 -0.067433454 0.009872617 -0.04826312 0.0164895 -0.08346308
-0.04254951 -0.033729598 0.014375432 -0.0031944173 0.0076904567 -0.003374516 -0.00083297916 0.045856725
0.06307707 -0.005475449 0.04753384 0.0075487024 -0.0044424403 -0.01968632 0.0155067695 0.07705464
-0.022557467 0.047849126 -0.013948774 -0.03202308 -0.025942188 -0.048501115 -0.06424123 0.050680045
-0.072873294 0.045383558 0.037226725 -0.009313173 -0.048855804 -0.06471452 0.05001878 0.046642527
-0.05734468 -0.02409348 0.06885918 0.018394276 0.03178157 0.05712961 -0.06433306 0.05660422
0.03993305 0.050572354 0.07117909 0.06024725 0.08708941 -0.07508631 0.025540376 0.08069026
-0.068676524 -0.020190239 -0.05078825 0.09083901 0.06661505 -0.01735959 0.014258521 0.06489992
-0.058764096 0.021503752 -0.027244102 0.0038186316 0.057285335 0.04285356 0.057717096 0.011963946
-0.032063156 -0.055673946 -0.0311788 0.027526544 0.019246418 -0.03203315 0.008996091 -0.01388192
0.06472038 -0.056974836 -0.07901555 -0.03800094 -0.0042430595 0.025552968 0.035834685 -0.012475633
-0.024578074 0.0044121756 -0.053375605 -0.0070371334 -0.063858405 -0.057991046 -0.028671844 -0.03599852
0.05293403 -0.013920404 -0.029702397 -0.078557365 0.015065446 0.031388745 0.05260867 -0.00958568
0.055226486 -0.07160948 0.084756285 0.019612353 -0.0022520262 0.060158037 0.055303756 -0.055462748
0.06701258 -0.023929147 -0.008260633 0.036218874 0.047787756 0.069705985 0.03013078 -0.02769093
0.04411319 0.0032775437 0.02537222 0.035559487 0.040053062 -0.025425393 0.030391252 -0.007987095
0.0300495 -0.046200834 0.058000486 -0.0422401 -0.029237539 0.022255823 0.017231684 0.06155419
-0.015633615 -0.05703825 -0.035188064 -0.040031552 -0.00025683336 -0.038748775 -0.06280247 0.0007985764
-0.016884482 -0.032015633 0.040736508 -0.04215253 0.03683293 0.034896176 -0.069685474 0.010298453
-0.060742084 0.03264775 -0.074548185 0.0041603227 -0.0055121966 -0.052197337 -0.058426183 -0.025456259
-0.026193261 0.015184798 0.011124864 0.017871596 0.0062501873 -0.030346213 -0.019705812 -0.042385466
0.03429054 0.07085948 0.019090723 -0.069212444 0.019038996 -0.026245441 0.07601665 0.022259591
00000000: 9037 5abd e4fa 38bc 4c05 673d 4894 53bd
00000010: ee8e 99bb d4ff 10bb 4891 a9bc 7202 b8bc
00000020: 0c14 833d b33e 793d 59ff 0abb 41b0 503b
00000030: a538 bbbb 2d8e 64bd ecc2 5f3c 8459 013d
00000040: 1269 0bbd e8e0 a73b 52e5 75bd e705 8d3d
00000050: 1067 c1bc 93e6 90bc 8c44 e03c 96bd 273c
00000060: 1fa5 40bd 2411 a63c 0639 45bd 9eb6 1e3d
00000070: d081 faba 87e4 8fbd 3f09 06bd a6d6 2c3d
00000080: 6ef8 4fbc 95e7 87bd 0758 3b3d 52f7 24bd
00000090: bc96 fc3a ddb2 67bc a7b8 34bd 8b2b a0bc
000000a0: 92c9 95bd 38e2 723d 6306 ed3c 8804 823d
000000b0: 8768 02bc f94c 81bd 1753 25bd 8a63 7f3c
000000c0: 1c53 4cbc 8bea 2cbc a131 e0bc 8487 cbbb
000000d0: dafd 36bd fd42 1fbc 97a6 35bd ba87 003d
000000e0: c912 0ebd 17fe ecb9 46b3 803d 2524 a8bc
000000f0: 61e6 27bd d8eb cabc 4c8a 6d3c 388d 4dbd
00000100: cedf cebc 5fa7 7ebd 12d0 20bd 40e8 e13c
00000110: cb41 2b3d 1783 323c 1a33 133c dc7d 5bbd
00000120: 2feb 963d d927 bb3c 36fe b6bc b4d4 4bbd
00000130: 6b2c 3fbd d637 293d a185 6b3d 5e11 2abd
00000140: 8d06 d6bc aedf 2ebd 0a02 fb3c 8d1a 8abd
00000150: c2c0 213c 8daf 45bd fd14 873c b1ee aabd
00000160: 6548 2ebd 0c28 0abd ef86 6b3c 6e59 51bb
00000170: 3a00 fc3b fc26 5dbb 495c 5aba 43d4 3b3d
00000180: 8d2e 813d 656b b3bb d8b2 423d 1b5b f73b
00000190: e491 91bb 3545 a1bc 1b10 7e3c d3ce 9d3d
000001a0: 70ca b8bc 72fd 433d 6689 64bc a22a 03bd
000001b0: b684 d4bc 1ba9 46bd e890 83bd e195 4f3d
000001c0: 983e 95bd 1ce4 393d 0d7b 183d 4796 18bc
000001d0: 061d 48bd 0c89 84bd 7ee0 4c3d 3c0c 3f3d
000001e0: 41e2 6abd b15f c5bc 0b06 8d3d 98af 963c
000001f0: 642d 023d bd00 6a3d 0dc1 83bd d4d9 673d
00000200: d690 233d f524 4f3d 58c6 913d d2c5 763d
00000210: ef5b b23d dac6 99bd 0d3a d13c ef40 a53d
00000220: 47a6 8cbd 0066 a5bc 5707 50bd ce09 ba3d
00000230: 796d 883d b335 8ebc 929c 693c 40ea 843d
00000240: 9fb2 70bd a328 b03c 062f dfbc 0242 7a3b
00000250: 07a4 6a3d 3787 2f3d c368 6c3d 6d04 443c
00000260: a854 03bd 5d0a 64bd af6a ffbc 597f e13c
00000270: aaaa 9d3c 3135 03bd 5764 133c fe70 63bc
00000280: 1e8c 843d 725e 69bd e8d2 a1bd e0a6 1bbd
00000290: 5d09 8bbb 7554 d13c 64c7 123d 9966 4cbc
000002a0: f557 c9bc 0394 903b 61a0 5abd c197 e6bb
000002b0: 32c8 82bd 0588 6dbd 37e1 eabc 2f73 13bd
000002c0: 5ad1 583d 6812 64bc 7152 f3bc afe2 a0bd
000002d0: 0fd5 763c 7c91 003d 307c 573d 420d 1dbc
000002e0: 2b35 623d fea7 92bd b494 ad3d 16aa a03c
000002f0: bb96 13bb 4668 763d 3186 623d e82c 63bd
00000300: e43d 893d 0f07 c4bc 9b57 07bc 3e5a 143d
00000310: 18bd 433d 03c2 8e3d d3d4 f63c 17d8 e2bc
00000320: 08b0 343d 0fcc 563b 67d9 cf3c d3a6 113d
00000330: ae0e 243d ea48 d0bc 13f7 f83c 4edc 02bc
00000340: 5e2a f63c 163d 3dbd eb91 6d3d f503 2dbd
00000350: 9083 efbc d851 b63c 7629 8d3c 3f20 7c3d
00000360: 1112 80bc f1a0 69bd 5c21 10bd 20f8 23bd
00000370: 97a7 86b9 09b7 1ebd 959e 80bd 8e57 513a
00000380: 5351 8abc d322 03bd 53db 263d 22a8 2cbd
00000390: 20de 163d 4bef 0e3d 42b7 8ebd d8ba 283c
000003a0: b1cc 78bd a6b9 053d b8ac 98bd 5153 883b
000003b0: a89f b4bb e0cc 55bd 4b50 6fbd a589 d0bc
000003c0: 4093 d6bc a9c9 783c 1045 363c 7467 923c
000003d0: 5fce cc3b 9f98 f8bc 156e a1bc 629c 2dbd
000003e0: 3d74 0c3d c61e 913d 2664 9c3c 41bf 8dbd
000003f0: abf7 9b3c ae00 d7bc 9eae 9b3d bf59 b63c

net.4.bias f4 [128]
-0.0010029459 0.0009433633 0.003679565 0.00041340347 5.055734e-05 -0.0004789374 -0.00042770643 0.000116600364
0.006042486 -0.0004521207 -0.0046154708 0.00045200318 2.1469812e-05 -0.0002015903 8.114043e-05 -0.0037906838
-0.001043403 -0.00016648552 3.759488e-05 0.006321905 0.0003329153 0.00011506192 -4.947411e-06 0.007583853
-0.00017805079 -6.289112e-05 -0.0012995736 0.00013607331 0.00013150906 -0.009652238 0.0074932403 -4.331208e-05
-0.00036100438 -5.5734374e-05 9.792597e-05 0.00047660302 -0.00032837634 0.00020397895 -0.009487601 3.472823e-05
0.00047309688 0.00020342278 0.0004544081 0.000108450215 -0.006830335 3.7765047e-05 0.00014883312 -0.0004605715
-1.3315191e-05 1.3051593e-05 -0.0072076526 -3.0504201e-05 0.00034894343 4.442251e-05 -3.3150134e-06 5.7850193e-05
0.00029509777 0.000249994 1.8396133e-05 0.008877807 1.9621617e-05 -0.001959594 -0.000931826 0.00014579426
-0.014136349 0.0016575761 0.0060236747 5.6016634e-06 -0.00025727114 0.013481741 0.003966543 -6.71271e-05
-0.004049658 0.0009655502 -0.00020153957 -5.4950742e-05 0.010139099 1.3152354e-05 -1.1028722e-05 0.011617835
-2.1359816e-05 2.7771359e-05 -0.005863263 0.009510653 -3.302247e-05 0.0046348353 -0.010915017 0.00047604286
-8.135721e-05 -0.0068581067 0.0037253364 0.011623187 0.0030333546 -9.4976036e-05 1.6118773e-05 0.00041640794
2.1224516e-05 -0.00023862187 6.7140163e-06 3.5778194e-05 -0.0025511058 -0.0004794734 -0.0048514972 4.125409e-05
-0.0036439223 -0.003909719 -0.0070535666 0.007283815 0.00045194058 0.009143799 0.00028825703 0.0003037491
-0.00016552287 -0.0017420449 -0.0028761087 -0.0100078415 8.680137e-05 1.2873058e-05 -0.0041567823 -0.012954461
0.0038911912 -0.00012551762 -2.412435e-05 0.00036676406 -0.008096235 -8.621938e-06 -9.050067e-05 -0.00041976332
00000000: 4875 83ba 0a4c 773a db24 713b 13be d839
00000010: 880d 5438 e419 fbb9 c93d e0b9 5887 f438
00000020: 0c00 c63b 9d0a edb9 603d 97bb d7fa ec39
00000030: 121a b437 fc61 53b9 f029 aa38 1f6d 78bb
00000040: ccc2 88ba 9e92 2eb9 32af 1d38 fc27 cf3b
00000050: 238b ae39 664d f138 f001 a6b6 f881 f83b
00000060: 25b3 3ab9 6ae4 83b8 7456 aaba e7ae 0e39
00000070: b2e5 0939 6c24 1ebc db89 f53b fea9 35b8
00000080: 3045 bdb9 54c4 69b8 9b5d cd38 93e0 f939
00000090: ed29 acb9 2fe3 5539 e271 1bbc 27a9 1138
000000a0: fd09 f839 e34d 5539 9f3d ee39 c46f e338
000000b0: 01d1 dfbb e965 1e38 1610 1c39 dc78 f1b9
000000c0: 4f64 5fb7 2af8 5a37 2c2e ecbb 46e3 ffb7
000000d0: 65f2 b639 4f52 3a38 7f77 5eb6 2ca4 7238
000000e0: 5ab7 9a39 a011 8339 6551 9a37 3974 113c
000000f0: 1a99 a437 886c 00bb c945 74ba 59e0 1839
00000100: 259c 67bc 0643 d93a 3f62 c53b ecf5 bb36
00000110: 59e2 86b9 85e2 5c3c c6f9 813b 96c6 8cb8
00000120: feb2 84bb fa1c 7d3a 5e54 53b9 e97a 66b8
00000130: 771e 263c eea8 5c37 0008 39b7 bb58 3e3c
00000140: db2d b3b7 8af6 e837 9d20 c0bb 92d2 1b3c
00000150: 9b81 0ab8 d1df 973b e6d4 32bc 6495 f939
00000160: 529e aab8 f8b9 e0bb c624 743b 2e6f 3e3c
00000170: 3fcb 463b df2d c7b8 cd36 8737 5451 da39
00000180: 4d0b b237 9236 7ab9 f648 e136 8b10 1638
00000190: 7430 27bb d561 fbb9 4ff9 9ebb 3e08 2d38
000001a0: dfce 6ebb 1a1d 80bb 9b21 e7bb 12ad ee3b
000001b0: 70f2 ec39 dfcf 153c 3421 9739 8440 9f39
000001c0: 3590 2db9 5455 e4ba 197d 3cbb eef7 23bc
000001d0: 2109 b638 5df9 5737 9e35 88bb f33e 54bc
000001e0: 5b03 7f3b 619d 03b9 a65e cab7 3d4a c039
000001f0: 12a6 04bc f1a6 10b7 2dcb bdb8 ae13 dcb9

net.5.weight f4 [128]
0.9021225 0.90538716 0.90534735 0.9010567 0.90322334 0.91104686 0.9084496 0.90431553
0.9022799 0.9073848 0.90835315 0.9107632 0.90150386 0.90630007 0.9019859 0.9017693
0.90090084 0.9025586 0.9012246 0.9034927 0.90554345 0.9025045 0.91018176 0.90340775
0.90302104 0.90349 0.90235335 0.90119785 0.92525935 0.9133118 0.90359586 0.90798295
0.9281657 0.89959717 0.90136737 0.9031818 0.90481216 0.90303713 0.90503114 0.90603405
0.90240204 0.90196615 0.90885675 0.9214872 0.90521914 0.90231615 0.90563804 0.9027479
0.90260106 0.90172416 0.9050444 0.9040192 0.90538543 0.9043766 0.90198797 0.9035403
0.90493786 0.9054071 0.903583 0.9051398 0.91343987 0.90580446 0.9017058 0.9051095
0.9002443 0.9019536 0.9141957 0.8988437 0.9031995 0.91131485 0.9069556 0.90412325
0.90502477 0.9028014 0.9064235 0.90425426 0.90918386 0.906485 0.90403485 0.90379035
0.90475506 0.9033189 0.90806115 0.909003 0.90450454 0.903422 0.90465593 0.9089862
0.90218383 0.905914 0.9030416 0.90460783 0.8989528 0.9038884 0.9020837 0.9034485
0.9062643 0.90473104 0.9082732 0.9057369 0.9098642 0.9035402 0.90320164 0.9058998
0.9077373 0.9040147 0.9026488 0.90511525 0.90793693 0.9020835 0.9029127 0.9043346
0.9049652 0.9036935 0.9094345 0.90045154 0.9040906 0.9044607 0.90378815 0.9059031
0.90012693 0.90329653 0.902286 0.9024024 0.9028796 0.9239613 0.8977775 0.9061453
00000000: 80f1 663f 74c7 673f d8c4 673f a7ab 663f
00000010: a539 673f 5e3a 693f 2790 683f 3981 673f
00000020: d1fb 663f 5f4a 683f d589 683f c727 693f
00000030: f5c8 663f 4803 683f 8ce8 663f 5ada 663f
00000040: 70a1 663f 150e 673f a8b6 663f 4c4b 673f
00000050: b2d1 673f 890a 673f ac01 693f bb45 673f
00000060: 632c 673f 1f4b 673f a100 673f e7b4 663f
00000070: ccdd 6c3f cdce 693f 0f52 673f 9271 683f
00000080: 449c 6d3f 004c 663f 03c0 663f ec36 673f
00000090: c5a1 673f 712d 673f 1fb0 673f d9f1 673f
000000a0: d203 673f 41e7 663f d6aa 683f 96e6 6b3f
000000b0: 71bc 673f 31fe 663f e5d7 673f 7d1a 673f
000000c0: dd10 673f 65d7 663f fdb0 673f cd6d 673f
000000d0: 57c7 673f 3a85 673f afe8 663f 6b4e 673f
000000e0: 02aa 673f c2c8 673f 3751 673f 3eb7 673f
000000f0: 32d7 693f cde2 673f 31d6 663f 42b5 673f
00000100: 6976 663f 6ee6 663f bb08 6a3f 9f1a 663f
00000110: 1538 673f ee4b 693f 3e2e 683f 9f74 673f
00000120: b4af 673f fe1d 673f 5f0b 683f 357d 673f
00000130: 46c0 683f 670f 683f d46e 673f ce5e 673f
00000140: 079e 673f e83f 673f b276 683f 6cb4 683f
00000150: 9c8d 673f aa46 673f 8897 673f 52b3 683f
00000160: 85f5 663f fbe9 673f bc2d 673f 6194 673f
00000170: c521 663f 3b65 673f f5ee 663f 6748 673f
00000180: f000 683f 749c 673f 9884 683f 60de 673f
00000190: dcec 683f 694e 673f 3938 673f 0de9 673f
000001a0: 7961 683f 826d 673f fe13 673f a2b5 673f
000001b0: 8e6e 683f f2ee 663f 4925 673f 7982 673f
000001c0: cdab 673f 7558 673f b3d0 683f fe83 663f
000001d0: 7b72 673f bd8a 673f a95e 673f 44e9 673f
000001e0: b86e 663f 713e 673f 37fc 663f d803 673f
000001f0: 1e23 673f ba88 6c3f bfd4 653f 23f9 673f

net.5.bias f4 [128]
0.0005064779 0.009612894 0.0042273966 0.0054638637 0.006021388 0.0014662439 -0.010551262 -0.016978843
0.002076892 -0.003745624 -0.0056584193 0.01172641 0.024311101 0.005668828 -3.375164e-06 0.003570293
-0.009837352 -0.00678705 -0.01584214 -0.0043381983 -0.006215401 -0.0019989111 0.0086884815 0.012311607
0.0036231515 0.003477596 0.005295187 -0.0018997053 -0.010262458 -0.0129442755 0.002190465 -0.00352547
0.0143080745 0.008877937 0.012850254 0.0063191247 -0.00091894576 -0.00751971 0.008372135 -0.0060964487
0.010447736 -0.0032338575 -0.010279442 0.00468017 0.011129982 0.008383697 0.0018388783 -0.004875962
-0.014644623 -0.007306914 -0.00059168844 -0.0107676005 0.0019017817 -0.011922989 0.0008386543 -0.009247328
-0.007293358 0.0017933463 -0.009548291 -0.012842839 0.0033644147 -3.9096616e-05 0.0073745563 -0.0062074875
0.0077826604 0.012973094 -0.006673434 0.012688566 -0.00065900054 0.0153663 -0.012616218 0.005609676
-0.011351266 -0.0057321 -0.01244843 -0.00022288105 -0.006546653 0.003094331 0.00642684 -0.0066695544
-0.023894738 -0.00964336 -0.005223313 -0.009587026 -0.0025660016 0.00025535672 -0.011694227 -0.012082152
-0.0036052775 -0.0078270035 -0.009053582 0.008612184 0.008362393 0.0015903204 0.0012693286 -0.0069943396
0.020435607 0.0012692767 -0.0034080483 0.0013738633 -0.0016152505 -0.0021372193 0.0004273362 -0.0034838272
-0.009827551 -0.011579058 0.0041190647 -0.012216051 -0.013370863 -0.0020492047 0.005556155 0.004126667
0.0062052985 -0.0016254772 0.010406443 0.004804872 -0.011092669 -0.0054247794 -0.0018184525 -0.010668464
0.012701424 -0.00261501 0.005994335 0.006402008 0.00826187 0.0055319723 0.010782844 -0.0055535254
00000000: 28c5 043a 667f 1d3c f985 8a3b 360a b33b
00000010: 104f c53b fb2e c03a 33df 2cbc 3717 8bbc
00000020: 771c 083b 2579 75bb 436a b9bb 2120 403c
00000030: 1328 c73c 93c1 b93b e080 62b6 94fb 693b
00000040: d82c 21bc e765 debb 60c7 81bc 7227 8ebb
00000050: 90aa cbbb 2a00 03bb 225a 0e3c 9fb6 493c
00000060: 6572 6d3b 61e8 633b 3f83 ad3b 88ff f8ba
00000070: de23 28bc 3a14 54bc e88d 0f3b 920b 67bb
00000080: 6a6c 6a3c c474 113c df89 523c a910 cf3b
00000090: 68e5 70ba e667 f6bb 482b 093c b8c4 c7bb
000000a0: fb2c 2b3c 20ef 53bb 1b6b 28bc 1d5c 993b
000000b0: 875a 363c c65b 093c 8406 f13a 89c6 9fbb
000000c0: 00f0 6fbc d66e efbb 8a1b 1bba 976a 30bc
000000d0: 3445 f93a a458 43bc 23d9 5b3a 1b82 17bc
000000e0: 1ffd eebb b70e eb3a 6f70 1cbc c56a 52bc
000000f0: 837d 5c3b acfb 23b8 43a6 f13b 2e68 cbbb
00000100: b005 ff3b 1a8d 543c d2ac dabb b4e3 4f3c
00000110: c7c0 2cba efc2 7b3c 41b4 4ebc 5fd1 b73b
00000120: a9fa 39bc 57d4 bbbb 80f4 4bbc 2db5 69b9
00000130: 4e85 d6bb 42ca 4a3b 3e98 d23b 478c dabb
00000140: e6be c3bc 2fff 1dbc 5328 abbb e712 1dbc
00000150: 5d2a 28bb 66e1 8539 2599 3fbc 38f4 45bc
00000160: 8546 6cbb d53c 00bc 7a55 14bc 1e1a 0d3c
00000170: 6b02 093c 4c72 d03a 9a5f a63a c630 e5bb
00000180: 9368 a73c dc5d a63a 9059 5fbb 3413 b43a
00000190: d0b6 d3ba 9710 0cbb 180c e039 ec50 64bb
000001a0: bd03 21bc 17b6 3dbc 38f9 863b d525 48bc
000001b0: 7711 5bbc f34b 06bb 6810 b63b fe38 873b
000001c0: d155 cb3b f70d d5ba c97f 2a3c 3072 9d3b
000001d0: 07be 35bc 59c2 b1bb 2459 eeba c8ca 2ebc
000001e0: a219 503c 9660 2bbb 206c c43b efc7 d13b
000001f0: cb5c 073c 8c45 b53b 87aa 303c 59fa b5bb

net.5.running_mean f4 [128]
-0.23727663 0.050555613 0.13123657 0.26622692 -0.17237611 -0.025717702 -0.08410549 -0.1684424
-0.034874745 -0.17396319 0.14339317 -0.21827722 -0.31347963 0.070216164 0.17706442 -0.05425491
0.14913428 -0.2738838 0.1907188 0.39567345 0.06817157 -0.17853796 -0.057362035 0.1407171
0.10606869 -0.19304156 -0.18355629 -0.1863656 0.1193321 0.06761348 0.16060765 -0.0071887677
0.006356865 -0.10129069 -0.012762138 -0.084272884 -0.02053126 0.25102857 0.10696164 -0.07422829
0.11154353 -0.026226778 -0.059157994 0.19932917 -0.053163204 0.1948944 0.23010251 0.23511814
-0.0068429876 -0.12746982 0.03391003 0.1352866 -5.386281e-05 -0.061558064 -0.26557165 -0.01073987
-0.15291199 -0.35553378 0.12697996 0.115685835 -0.14543921 -0.22082752 0.10497348 -0.0032493602
-0.17927943 0.0642706 0.20468695 -0.13113655 -0.354455 0.057403073 -0.13370606 -0.07086701
0.045430414 -0.07893459 0.09768388 0.07243611 0.18281066 -0.15793099 -0.08535023 0.24335626
-0.04854836 0.28161317 0.13007331 -0.10261262 -0.04684135 -0.33094737 -0.33111718 0.4015173
0.14520524 0.20722586 0.07371653 0.011480012 0.00073756103 -0.36816898 -0.08616615 -0.07335973
0.1623571 0.18496256 -0.14971733 -0.10767142 0.07800596 0.15654494 0.16939622 -0.13507856
0.118872054 0.17252952 -0.1511532 0.12712254 0.046252485 0.092104584 -0.22656931 0.05137794
0.2727109 -0.17155558 0.14918335 -0.021883586 -0.075773545 -0.046232987 -0.015751394 -0.013199809
-0.016152576 -0.106852785 -0.3066062 0.020123782 0.0054505295 -0.1033484 -0.24885069 -0.20486864
00000000: a5f8 72be 6713 4f3d e162 063e e54e 883e
00000010: 5d83 30be eead d2bc 803f acbd 2a7c 2cbe
00000020: d2d8 0ebd 6823 32be a9d5 123e 1084 5fbe
00000030: 6780 a0be 7ecd 8f3d 6050 353e 663a 5ebd
00000040: a8b6 183e 7f3a 8cbe ca4b 433e b695 ca3e
00000050: 899d 8b3d a8d2 36be 74f4 6abd 2518 103e
00000060: 8b3a d93d b0ac 45be 2ef6 3bbe a0d6 3ebe
00000070: 6364 f43d f078 8a3d 5576 243e c18f ebbb
00000080: 404d d03b 7e71 cfbd 4918 51bc 4397 acbd
00000090: 2c31 a8bc d186 803e b40e db3d 0005 98bd
000000a0: ef70 e43d 8ad9 d6bc a74f 72bd f21c 4c3e
000000b0: a9c1 59bd 6692 473e fe9f 6b3e cfc2 703e
000000c0: 243b e0bb 7387 02be 3ee5 0a3d 9288 0a3e
000000d0: c0ea 61b8 4f24 7cbd 02f9 87be 48f6 2fbc
000000e0: f694 1cbe 8608 b6be 0907 023e b2ec ec3d
000000f0: 04ee 14be 9c20 62be 56fc d63d 38f3 54bb
00000100: 0795 37be 4ea0 833d 7599 513e a948 06be
00000110: 207b b5be 7c1f 6b3d 3eea 08be b922 91bd
00000120: 3e15 3a3d 75a8 a1bd 7c0e c83d 6259 943d
00000130: b832 3b3e a9b8 21be 1acc aebd 6232 793e
00000140: a5da 46bd 9a2f 903e f031 053e 9126 d2bd
00000150: b7dc 3fbd ef71 a9be 3188 a9be ad93 cd3e
00000160: afb0 143e 0433 543e b1f8 963d a916 3c3c
00000170: e258 413a a580 bcbe e177 b0bd a03d 96bd
00000180: f140 263e d366 3d3e 804f 19be d582 dcbd
00000190: 97c1 9f3d 514d 203e 3476 2d3e 0952 0abe
000001a0: 3173 f33d 94ab 303e e8c7 1abe 692c 023e
000001b0: 3f73 3d3d 54a1 bc3d c901 68be ad71 523d
000001c0: c3a0 8b3e 44ac 2fbe 85c3 183e 3545 b3bc
000001d0: 292f 9bbd cd5e 3dbd 1109 81bc 0344 58bc
000001e0: 6852 84bc a2d5 dabd 7dfb 9cbe a1da a43c
000001f0: 5b9a b23b 53a8 d3bd b7d2 7ebe 16c9 51be

net.5.running_var f4 [128]
0.059971962 0.15383534 0.087725796 0.058321495 0.046329126 0.10405577 0.06432557 0.0783342
0.15010323 0.09691886 0.13975087 0.2524125 0.119560346 0.055924032 0.053800352 0.0706307
0.14107685 0.063331485 0.11712895 0.17792633 0.055962447 0.12193793 0.24362545 0.23695816
0.2026325 0.12647417 0.17933299 0.05918058 0.080854505 0.05384448 0.091604315 0.1317397
0.26828787 0.16959634 0.1266771 0.09705129 0.10023602 0.111359924 0.052152198 0.100667104
0.12984525 0.10541583 0.07810976 0.09610005 0.1274026 0.11280435 0.27462882 0.086293094
0.06958361 0.075043276 0.06779082 0.19481531 0.114686884 0.05781593 0.09554157 0.11529081
0.12365683 0.14677832 0.13472043 0.11130998 0.19921821 0.23336115 0.092379384 0.07912855
0.11840733 0.12201344 0.046731714 0.103414595 0.046440586 0.15655944 0.07620965 0.119739726
0.07741931 0.1342588 0.053374127 0.053528596 0.07170159 0.07753287 0.16439614 0.099719845
0.07331093 0.07625933 0.12351892 0.11062228 0.17521197 0.11262342 0.13837144 0.114127465
0.12805383 0.07501248 0.11218349 0.1173996 0.1327765 0.042948432 0.085141525 0.07565216
0.114649504 0.12636372 0.071267314 0.09054555 0.048594024 0.13493785 0.09643338 0.14138648
0.06458148 0.17391436 0.07996445 0.10226418 0.21995929 0.14122897 0.133044 0.07059948
0.13652176 0.1027353 0.07859301 0.13813841 0.052706096 0.055673756 0.19618057 0.13220966
0.11469704 0.11140649 0.08902133 0.13209541 0.09431574 0.2032432 0.08293979 0.13162637
00000000: 29a5 753d 0387 1d3e 95a9 b33d 85e2 6e3d
00000010: 9cc3 3d3d 311b d53d 20bd 833d ae6d a03d
00000020: a9b4 193e 657d c63d da1a 0f3e 363c 813e
00000030: 0edc f43d 9910 653d c25d 5c3d d4a6 903d
00000040: 7376 103e f0b3 813d 4ee1 ef3d 5232 363e
00000050: e138 653d 98ba f93d f378 793e 29a5 723e
00000060: e57e 4f3e 7282 013e 11a3 373e 5667 723d
00000070: 0c97 a53d 088c 5c3d 0b9b bb3d c6e6 063e
00000080: 075d 893e aaaa 2d3e a4b7 013e d4c2 c63d
00000090: 8b48 cd3d ac10 e43d 8b9d 553d 8e2a ce3d
000000a0: 27f6 043e 41e4 d73d 03f8 9f3d 1ad0 c43d
000000b0: d475 023e f805 e73d 269c 8c3e 6fba b03d
000000c0: da81 8e3d 4ab0 993d ead5 8a3d aa7d 473e
000000d0: f5e0 ea3d 66d0 6c3d 4cab c33d 971d ec3d
000000e0: cb3f fd3d 0e4d 163e 27f4 093e 7df6 e33d
000000f0: dcff 4b3e 3af6 6e3e 6731 bd3d 260e a23d
00000100: 8b7f f23d 2fe2 f93d c169 3f3d 08cb d33d
00000110: 7c38 3e3d 1e51 203e ce13 9c3d 1a3a f53d
00000120: 048e 9e3d 247b 093e d49e 5a3d cd40 5b3d
00000130: 49d8 923d 8ec9 9e3d 7657 283e eb39 cc3d
00000140: 0a24 963d da2d 9c3d 7df7 fc3d ef8d e23d
00000150: c46a 333e 1ca7 e63d 3eb1 0d3e a9bb e93d
00000160: 8b20 033e 25a0 993d 75c0 e53d 346f f03d
00000170: 90f6 073e b2ea 2f3d ae5e ae3d 85ef 9a3d
00000180: 5ccd ea3d 7e65 013e 99f4 913d f26f b93d
00000190: 870a 473d 262d 0a3e dd7e c53d 9ec7 103e
000001a0: 4c43 843d 9b16 323e 67c4 a33d e26f d13d
000001b0: 023d 613e 549e 103e b03c 083e 7696 903d
000001c0: 5ccc 0b3e e366 d23d 5ff5 a03d 2874 0d3e
000001d0: 59e2 573d 2a0a 643d 8fe3 483e f861 073e
000001e0: 48e6 ea3d 1629 e43d d150 b63d 0544 073e
000001f0: 9c28 c13d fc1e 503e 56dc a93d 10c9 063e

net.8.weight f4 [128, 128]
-0.07846235 0.08357179 -0.05446132 0.028228357 0.013889458 0.08601893 0.053914092 0.04663427
-0.042083055 -0.050867796 -0.073991284 -0.007024363 0.027731426 -0.016398285 0.08085633 -0.020962438
-0.0054858644 -0.023679214 -0.01209945 0.055847757 -0.035703436 0.028775003 0.02874374 0.012356786
0.02769906 0.054406 0.01604285 0.04651805 -0.037589535 0.026515104 0.0045944 -0.04732566
0.07291345 -0.061497312 0.0022143999 0.029873993 -0.020904947 0.021583706 0.034666345 0.004398471
-0.03194456 0.06497588 -0.051436193 0.010808546 -0.04475319 -0.04330954 0.054029617 -0.07460308
0.026500635 -0.05699059 0.021702848 -0.04486033 -0.033656646 -0.01340099 0.038351957 0.03070971
-0.025182052 -0.041263036 0.027019355 0.02154401 0.031489678 0.056941595 0.090377785 0.005201484
-0.028948627 0.015181327 -0.043267854 0.035788957 -0.026901023 -0.05095961 -0.010911505 0.020319235
-0.065700464 0.054164175 -0.034288075 -0.005707111 0.06331385 -0.05277737 -0.012030662 0.02994387
-0.07338753 0.0047688237 0.08588932 0.06576699 0.018333524 -0.0617062 -0.057808693 -0.049549375
0.05190784 -0.046106517 0.030709336 0.051909633 0.047170073 -0.06357384 -0.069853276 0.03638669
0.09108547 -0.023317806 0.057685833 -0.008872402 0.034684747 0.047696363 -0.05829154 -0.030307967
-0.033278465 -0.012781724 -0.030203968 -0.0072422894 0.01657323 -0.020727769 0.05924453 -0.02381833
0.019771492 0.04043183 0.007711746 -0.06929706 0.004568828 0.008843914 -0.07269918 -0.035104055
-0.0009823443 0.057473905 -0.00088135194 0.02813452 -0.046534907 0.021416921 -0.029279953 -0.0029062808
0.057181228 0.064527094 0.084440306 0.024046531 0.044435006 0.03671944 0.011326787 0.049736988
-0.06434759 -0.06256295 -0.050419427 0.018970525 -0.011498933 0.08735309 0.07640707 0.06829436
-0.05229962 -0.040710703 -0.046496615 -0.037600398 0.022219172 -0.07028891 -0.02782785 0.05266246
-0.0435511 0.021427074 0.06255489 0.050469056 0.08382433 0.06642622 -0.02777003 -0.03846498
0.028427862 -0.019879181 0.032572336 0.049213585 -0.04567174 -0.061908655 -0.009715943 -0.040788475
0.004109943 -0.05816707 0.06691595 -0.027063105 0.02680415 -0.042552095 0.012502955 -0.021962462
0.053885367 -0.0373473 -0.0410186 -0.045724098 0.04264012 0.0066600386 0.021907184 0.0054554394
0.014297779 -0.02639253 0.048135206 0.04515375 0.0036633057 0.059824124 -0.029908229 0.035719357
0.05438228 -0.025981057 -0.009123691 -0.041686274 -0.006576354 0.014857233 0.0080590015 -0.05908571
0.03855313 0.024891179 0.05631271 0.05656018 0.03403877 0.0047453446 0.07152942 -0.019210415
0.03914753 -0.030019907 0.04250995 0.046341017 -0.0018084296 -0.029442925 -0.023204563 0.03567032
-0.02745243 -0.02015832 -0.055331063 -0.02567413 0.04094013 -0.015209652 -0.033802234 0.032838073
-0.03487481 0.02327265 0.001344931 -0.041640524 0.050433394 -0.058979377 0.023171198 -0.019116841
0.0054546706 -0.0059683025 0.047745857 -0.040862978 -0.016013058 -0.045159496 0.018096637 0.074424274
0.004431234 -0.04520907 0.07831091 -0.060694966 -0.044388104 -0.043140646 -0.044275433 0.031630673
-0.03169879 -0.049468245 0.044747747 0.059526585 0.026710771 0.07118184 -0.04052421 0.012355853
00000000: deb0 a0bd b027 ab3d d512 5fbd 283f e73c
00000010: 9c90 633c b12a b03d 06d5 5c3d 9403 3f3d
00000020: 485f 2cbd c05a 50bd be88 97bd a12c e6bb
00000030: 042d e33c b255 86bc 0198 a53d 6bb9 abbc
00000040: c4c2 b3bb e9fa c1bc c63c 46bc 9ec0 643d
00000050: c43d 12bd 8eb9 eb3c fe77 eb3c 1e74 4a3c
00000060: 24e9 e23c d3d8 5e3d 4c6c 833c b689 3e3d
00000070: 7cf7 19bd 3436 d93c 9f8c 963b 8dd8 41bd
00000080: a653 953d 9be4 7bbd 771f 113b 4eba f43c
00000090: da40 abbc 50d0 b03c 4cfe 0d3d 0d21 903b
000000a0: 4dd8 02bd 1312 853d c2ae 52bd 5416 313c
000000b0: 1f4f 37bd 5865 31bd 294e 5d3d 80c9 98bd
000000c0: dc17 d93c f76e 69bd 2cca b13c 77bf 37bd
000000d0: 8ddb 09bd d38f 5bbc f116 1d3d ee92 fb3c
000000e0: 974a cebc 6e03 29bd b257 dd3c 107d b03c
000000f0: 52fb 003d 973b 693d fd17 b93d 3671 aa3b
00000100: ac25 edbc 1abb 783c a239 31bd 7197 123d
00000110: 895f dcbc 06bb 50bd 2bc6 32bc 8674 a63c
00000120: f78d 86bd 41db 5d3d a771 0cbd b802 bbbb
00000130: b1aa 813d 152d 58bd 411c 45bc d94c f53c
00000140: 344c 96bd cb43 9c3b bde6 af3d d8b0 863d
00000150: 3030 963c a4bf 7cbd cfc8 6cbd 49f4 4abd
00000160: 519d 543d 30da 3cbd 2592 fb3c 329f 543d
00000170: 6835 413d 0033 82bd 3c0f 8fbd 360a 153d
00000180: 058b ba3d fc04 bfbc fb47 6c3d 8d5d 11bc
00000190: 9811 0e3d 435d 433d 1cc3 6ebd 6a48 f8bc
000001a0: 004f 08bd 706a 51bc 506e f7bc ba50 edbb
000001b0: 95c4 873c 48cd a9bc 64aa 723d a91e c3bc
000001c0: d3f7 a13c d99b 253d d0b2 fc3b 9eeb 8dbd
000001d0: 1bb6 953b 10e6 103c 4fe3 94bd 45c9 0fbd
000001e0: 01c2 80ba c269 6b3d 870a 67ba 5d7a e63c
000001f0: 639b 3ebd 8a72 af3c 83dc efbc 4d77 3ebb
00000200: dd36 6a3d c826 843d 0aef ac3d 3bfd c43c
00000210: 7b01 363d 2067 163d fd93 393c 03b9 4b3d
00000220: abc8 83bd 0121 80bd 9a84 4ebd 1368 9b3c
00000230: 0566 3cbc 2de6 b23d 4f7b 9c3d eadd 8b3d
00000240: 2038 56bd 44c0 26bd 3c73 3ebd e002 1abd
00000250: fb04 b63c a2f3 8fbd 3bf7 e3bc 97b4 573d
00000260: a362 32bd d587 af3c c71c 803d a4b8 4e3d
00000270: 17ac ab3d 780a 883d f97d e3bc 748d 1dbd
00000280: 8ce1 e83c aad9 a2bc 926a 053d 2f94 493d
00000290: 4a12 3bbd ee93 7dbd 9e2f 1fbc d111 27bd
000002a0: b3ac 863b 9840 6ebd 3b0b 893d 72b3 ddbc
000002b0: 6094 db3c 1b4b 2ebd 32d9 4c3c 9fea b3bc
000002c0: e7b6 5c3d 7cf9 18bd 1f03 28bd 3149 3bbd
000002d0: 68a7 2e3d 743c da3b b276 b33c 8bc3 b23b
000002e0: 3b41 6a3c 2635 d8bc 6c29 453d 23f3 383d
000002f0: 1214 703b 240a 753d 1a02 f5bc 764e 123d
00000300: f4bf 5e3d 3ad6 d4bc 897b 15bc 3abf 2abd
00000310: 757e d7bb c06b 733c e709 043c dc03 72bd
00000320: e3e9 1d3d 96e8 cb3c 28a8 663d a6ab 673d
00000330: 3d6c 0b3d d67e 9b3b 047e 923d 295f 9dbc
00000340: 2959 203d 4fec f5bc ea1e 2e3d 14d0 3d3d
00000350: d408 edba 4a32 f1bc 7f17 bebc 0b1b 123d
00000360: ebe3 e0bc 1023 a5bc d3a2 62bd 8e52 d2bc
00000370: d6b0 273d e731 79bc 3674 0abd 3781 063d
00000380: e4d8 0ebd 49a6 be3c 6548 b03a 418f 2abd
00000390: 3f93 4e3d 5c94 71bd 86d1 bd3c ec9a 9cbc
000003a0: 18bd b23b c091 c3bb 2991 433d f05f 27bd
000003b0: d12d 83bc 2af9 38bd 663f 943c c16b 983d
000003c0: e333 913b 252d 39bd 7861 a03d 499b 78bd
000003d0: 4dd0 35bd 3fb4 30bd 285a 35bd 2a8f 013d
000003e0: 97d6 01bd 379f 4abd 6a49 373d 26d2 733d
000003f0: 8cd0 da3c c9c7 913d b7fc 25bd 3470 4a3c
